project/code/models/anfis_model.pth (torch, 8193 bytes, 3 tensors)

rule_weights f4 [12, 1]
0	0xbe204c16	-0.15654024
1	0xbf6c1c5c	-0.9223077
2	0xbfba2b92	-1.4544547
3	0xbe8ab050	-0.2708764
4	0x3f456453	0.7710621
5	0xbdd9f4fb	-0.106424294
6	0xbfc9a580	-1.5753632
7	0xbfbd6771	-1.4797193
8	0x3ed0911c	0.4073571
9	0x3f8fd6bd	1.1237408
10	0xbcf879d6	-0.030331533
11	0xbe780574	-0.2422083

norm_weights f4 [12, 1]
0	0x3f0fd286	0.5618061
1	0x3e8f3e7d	0.27977362
2	0xbda34630	-0.079723716
3	0x3efdf6ad	0.4960226
4	0x3e9b1db8	0.3029611
5	0x3b7025d1	0.0036643634
6	0x3ec6adf0	0.3880458
7	0xbe93e6e1	-0.28887084
8	0x3f2febda	0.68719256
9	0xbfc891ab	-1.5669454
10	0x3e9b6a82	0.30354697
11	0x3f21ec01	0.6325074

consequent_weights f4 [12, 1]
0	0x3f44a2fe	0.76811206
1	0x3ecbcb62	0.39803606
2	0x3f1044c8	0.5635495
3	0x3e9cfd98	0.30662227
4	0x3f4cffe8	0.8007798
5	0x3f5788be	0.84193027
6	0x3f3ce023	0.73779505
7	0x3e2aa974	0.16666204
8	0x3dc29740	0.09501505
9	0x3f131b00	0.57463074
10	0x3f34a8f3	0.70570296
11	0x3f00df1e	0.5034045
