midterm/MLP1_best_model.pth (torch, 4752 bytes, 3 tensors)

fc.0.weight f4 [64, 8]
000000 0b 49 87 be f4 5c 9d be 1c ff 86 be c0 85 a1 be
       -0.26422915 -0.3073498 -0.26366508 -0.31547356
000010 d2 24 82 3e 11 db 93 be 22 e2 dc 3d 32 37 96 3e
       0.25418717 -0.28878072 0.10785319 0.29338986
000020 ce fa eb 3d e1 9f 3a be 0c 79 e0 3d b7 35 d0 bd
       0.115224466 -0.18225051 0.10960588 -0.10166495
000030 1a 36 e5 3d 74 8d b0 be 58 b6 33 be 44 54 b8 bb
       0.1119196 -0.3448292 -0.17550027 -0.0056252796
000040 2d 88 6e 3d 4f 32 5c 3e ad ff 5a be 54 54 64 be
       0.058235336 0.21503566 -0.21386595 -0.22297794
000050 da 91 ed bd 48 89 2f 3c 7c d9 99 3e a8 98 c1 3e
       -0.116000846 0.010713883 0.3004874 0.3781178
000060 0b 4a 83 be 7a 02 13 3e 68 cb 7e bd 02 db 6f 3e
       -0.25642428 0.14356413 -0.062205702 0.23423389
000070 fe bc aa be 8a 2e af be f6 e5 4a 3e 90 b8 80 3c
       -0.33347315 -0.34215194 0.19814286 0.015713006
000080 59 93 91 bc b0 7d 95 3e ae 30 e1 bd e4 ee a7 be
       -0.017770456 0.29197454 -0.10995613 -0.32799447
000090 a4 be 17 3e ce df 86 3e 4d d0 9a be c2 e7 34 be
       0.14818817 0.26342624 -0.30237046 -0.17666534
0000a0 57 1a 84 be f0 67 36 3e ed e2 e1 bd 71 16 25 3e
       -0.25801346 0.17813087 -0.11029611 0.16121842
0000b0 fb 8b 79 be ec a3 6f 3e 0b 7b 59 bd 50 f5 a4 3e
       -0.24369805 0.23402375 -0.05309586 0.3221841
0000c0 78 b8 7f 3e b1 06 0f be 79 cf 6c 3e 75 bd 70 be
       0.24972713 -0.13967396 0.2312602 -0.23509772
0000d0 b5 8a 9f 3d 3f 6d 48 3e cf e4 48 3e dc 29 23 3e
       0.07790128 0.19572924 0.19618534 0.15933937
0000e0 4d d9 a8 bd 5c 5f 18 be dc dd b8 3d 7a de 24 3d
       -0.08244572 -0.14880127 0.09026691 0.040251233
0000f0 cf 6f d7 bd 83 98 fc 3c 3e e0 85 3e 97 b7 52 be
       -0.10519373 0.030834442 0.26147646 -0.20577846
000100 39 c2 f5 bd 25 c8 42 be 14 45 52 3d 0f 0d 79 be
       -0.11999936 -0.19021662 0.05133541 -0.24321388
000110 46 9e 80 3e 26 c0 d7 3b 6b 78 9a 3d 7f 1d 1d 3e
       0.25120753 0.006584185 0.07542499 0.15343283
000120 9b cc 96 3e 65 d7 f4 bd f2 eb 57 be de 2f 01 be
       0.29452977 -0.11955146 -0.210861 -0.12615916
000130 42 a4 f6 3d 3a 13 b9 3e 65 fb 8a be 2d eb 87 be
       0.120430484 0.3614748 -0.27144924 -0.26546612
000140 df c5 1b 3c d4 89 21 3d a8 14 b4 bc ae 22 c2 3d
       0.009507625 0.039438084 -0.021982506 0.09479271
000150 b1 2f c6 3d 11 35 11 be 55 06 dd 3b 96 26 99 be
       0.09677065 -0.141804 0.0067451396 -0.2991225
000160 b0 24 68 be 4e b5 1b 3e 36 ae 8d be 40 52 bf bc
       -0.22670245 0.15205881 -0.27671975 -0.02335465
000170 1f a7 9f 3e 8b 3e 94 be cc 6f 9d 3d 8d d6 86 be
       0.3118219 -0.28953966 0.07687339 -0.26335564
000180 04 57 64 be 64 6f 94 bd a3 f4 62 be d1 0b e9 3d
       -0.22298819 -0.072478086 -0.22163634 0.11379207
000190 99 77 4f be 8e 04 71 3e 68 3c f5 3d b5 9d 1f 3e
       -0.20260467 0.23536894 0.11974412 0.15587504
0001a0 20 a4 e7 bc b9 43 a3 3d ed 27 2b be 0c 01 93 be
       -0.028276503 0.079719014 -0.16714449 -0.28711736
0001b0 62 12 36 be 55 51 59 be 5c 4f b0 be 85 3f 50 be
       -0.1778045 -0.21222432 -0.34435546 -0.20336731
0001c0 79 ed 46 3e ce b8 6b be 1f 18 07 be 1d 3e 32 be
       0.19426526 -0.23019716 -0.13192795 -0.17406507
0001d0 6f 44 be 3e ec da ca 3c 60 60 8d 3e 85 5d d5 bd
       0.37161586 0.024762593 0.2761259 -0.10418228
0001e0 db 06 0b be 1e 46 7f be 7b a3 22 3e a2 e8 84 be
       -0.13576834 -0.24929091 0.15882675 -0.25958735
0001f0 af 81 23 be 2c b6 f9 3d f6 46 9c bd 65 ca 8a 3e
       -0.15967439 0.1219295 -0.07630722 0.2710754
000200 8a b9 ab 3e d1 9d c0 3d 5c 3a 82 bd 18 11 d9 bd
       0.33539993 0.09405101 -0.063587874 -0.105989635
000210 3d 80 85 3e 4e 15 02 3e e3 8a 30 3e 35 5c 19 be
       0.260744 0.1270344 0.17240481 -0.1497658
000220 60 aa ea bd 0b 5d 1d be 88 db 16 be c0 74 88 be
       -0.11458278 -0.15367524 -0.14732182 -0.26651573
000230 a4 4e 6c be 20 e2 6e 3d 3c 46 84 be 00 84 29 bb
       -0.23076874 0.05832112 -0.25834835 -0.0025866032
000240 59 df 24 3e 37 6b 4d be a8 ca 8c 3e d4 ea b3 bb
       0.16100825 -0.2006043 0.27498364 -0.00549064
000250 d0 d4 01 3e d8 b0 96 3e ca 28 47 be 4c 43 5d be
       0.12678838 0.29431796 -0.19449154 -0.21607703
000260 18 79 eb bd 60 c8 44 3d 80 b5 ad bc 95 8c 4a be
       -0.11497706 0.048042655 -0.02120471 -0.1978019
000270 94 e9 a7 be 1a 3f 9d be aa 96 4f 3e 08 8a ac be
       -0.32795393 -0.30712205 0.20272318 -0.3369906
000280 18 a0 fd bd 8c db 19 be e0 e9 ad 3d 70 0b c3 bd
       -0.12384051 -0.15025157 0.08491874 -0.09523666
000290 90 64 31 bd c8 01 3b be d6 56 01 3e 8c f5 ea 3d
       -0.043308794 -0.18262398 0.12630782 0.114726156
0002a0 bb 46 bb be 07 22 85 3e 45 5d af be 44 12 3c 3e
       -0.365774 0.26002523 -0.34250847 0.18366343
0002b0 5b 2e 86 be 3c c7 11 be 31 94 54 3e d5 20 a2 be
       -0.2620724 -0.14236158 0.20759656 -0.31665674
0002c0 13 bd a7 3e 6a e7 e4 3d d2 f2 c5 3c 3d 1d 1a be
       0.3276144 0.11176951 0.024163637 -0.15050216
0002d0 fa d7 92 bd c7 5d d1 bd 60 9d ac bd 94 0c 9c 3e
       -0.071701005 -0.10222965 -0.084284544 0.30478346
0002e0 fa 85 9a be ac 33 6b 3e 3a 66 18 3e 40 e1 8a be
       -0.3018034 0.2296893 0.14882746 -0.27124977
0002f0 3b db b9 3e 6b 39 e6 bd 97 18 94 bd 3c 1d a2 3d
       0.36300072 -0.1124142 -0.07231253 0.07915732
000300 ef 9e 8b be 21 b9 9a be 80 3f 7a bd a3 d5 0b bd
       -0.27269694 -0.30219367 -0.061095715 -0.034139287
000310 22 e3 87 3e 70 19 c3 bd 5d 66 18 3e 72 7c 75 3e
       0.26540476 -0.09526336 0.14882798 0.23973253
000320 12 67 fb bd 39 9b 82 3e 77 66 f6 3d 38 d7 a4 3e
       -0.122755185 0.2550905 0.12031262 0.3219545
000330 bd e1 7b 3e 10 3c 5f be 96 33 a9 3d dc 9a 24 3e
       0.24597831 -0.21800256 0.08261792 0.16074699
000340 18 d8 ab be 94 ab 77 be e2 18 4d 3e ac e7 9d be
       -0.33563304 -0.24186546 0.20029023 -0.30840814
000350 c8 70 b2 be 99 55 43 be 24 c1 90 3d 76 bf 2c be
       -0.3485167 -0.19075622 0.07068089 -0.16869912
000360 19 85 e0 3d 52 3d aa 3e 07 1b 88 3e 90 34 bc 3e
       0.10962886 0.3324991 0.2658312 0.36758852
000370 58 e2 24 be f0 bb 8b 3d 0e 9d 2c 3e 7e f8 72 3d
       -0.16101968 0.068229556 0.16856787 0.059319012
000380 ff 19 59 be 6d 71 2a be 88 50 19 bd 27 5e 27 be
       -0.21201323 -0.16644831 -0.037430316 -0.1634451
000390 d8 c6 80 be 30 fb 99 be 2a e0 6e be b1 9e a4 3e
       -0.25151706 -0.30074453 -0.233277 0.32152322
0003a0 9e 35 9d 3a 74 af 1d 3d d7 c3 a0 3e e3 be 60 be
       0.0011994129 0.038497403 0.31399414 -0.21947818
0003b0 4b 04 dd bd 0b 5c 56 3e 6d ed dc bc c2 09 1c 3e
       -0.107918344 0.20933549 -0.026968682 0.15238097
0003c0 ab 32 94 be 9a 25 35 be 18 48 1a be 61 1a 33 be
       -0.28944907 -0.17690125 -0.15066564 -0.17490532
0003d0 d7 a6 3b be 1e e0 a4 be fa 71 84 3e f2 ae 31 3e
       -0.18325363 -0.32202238 0.25868207 0.17351893
0003e0 2c fb 71 be a6 e0 a4 3e b8 b5 a5 3e 34 7c 7c be
       -0.2363097 0.32202643 0.32365203 -0.24656755
0003f0 81 4c 39 3e e8 d8 28 be 5a 36 6a be 26 7d 3b bd
       0.1809559 -0.16488993 -0.22872296 -0.045773648

fc.0.bias f4 [64]
000000 40 11 40 3e 85 e9 a9 3e be c3 5d be 7a e0 75 be
       0.1875658 0.33185974 -0.21656701 -0.24011412
000010 88 8f 32 be b8 ae 46 3e e0 55 4b be 11 31 a0 3e
       -0.17437565 0.19402587 -0.19856977 0.31287435
000020 5f 62 09 3e 51 bc bc 3d db 4e a0 bd ea 66 9d be
       0.13416432 0.09215606 -0.078275405 -0.3074258
000030 ae f5 8b be 34 ee 0d 3e a9 6f 3c 3e ba 83 43 3d
       -0.27335876 0.13860399 0.1840197 0.047733046
000040 9c 95 8b be 14 c5 86 be 76 4a b0 3c b5 b2 9c be
       -0.2726258 -0.26322234 0.02151988 -0.30605093
000050 45 b6 9a be b4 57 93 3e ff 48 5b 3e b6 6f 58 3e
       -0.30217186 0.2877785 0.21414565 0.21136364
000060 7b e9 b8 bd a7 ac ad be 54 de b3 be fe b1 c1 3d
       -0.09028908 -0.33920786 -0.3513056 0.094577774
000070 e1 c4 08 be ce b4 b3 be 87 0c f9 3d 9e 06 2d bd
       -0.13356353 -0.3509888 0.121605925 -0.04224264
000080 01 be aa 3e 49 82 83 be 94 4d 82 be 53 38 c9 3d
       0.33348086 -0.25685337 -0.25449812 0.09825196
000090 d8 9c cb 3d 58 67 89 be 04 20 58 3e 32 3c 98 be
       0.09942025 -0.26836658 0.21105963 -0.29733425
0000a0 d9 58 66 be c7 2e f5 3d 3a e5 94 be 6c cd 93 be
       -0.2249483 0.11971813 -0.29081136 -0.28867662
0000b0 5d cc 9c 3e 9c 6f 93 3c b7 f4 91 bc 0d bb 7f be
       0.30624667 0.017997555 -0.017816884 -0.24973698
0000c0 5c c9 a1 3d 31 fb c9 bd 84 7f 73 3d 9e 35 4c be
       0.078997344 -0.09862364 0.05944778 -0.19942328
0000d0 34 f0 a5 be 99 1c 96 be a3 94 db 3d 67 93 81 bd
       -0.32409823 -0.29318693 0.107217096 -0.06326943
0000e0 1e 35 74 bd 1d 6f 48 be 41 1d 6e 3e 8b 52 6a 3e
       -0.05962097 -0.19573636 0.23253347 0.2288305
0000f0 2c 29 8e be 01 b3 a6 3e 18 54 97 3e f9 0c c9 3d
       -0.27765787 0.32558444 0.29556346 0.098169275

fc.2.weight f4 [1, 64]
000000 04 15 cf bd 1f 83 e1 3b ac 21 0a 3e 96 6e cb bd
       -0.1011143 0.006882086 0.13489407 -0.09933202
000010 14 03 5f bd 07 f6 8d 3d dd aa 9e 3d c8 d4 17 3e
       -0.054446295 0.069316916 0.07747433 0.14827263
000020 31 60 7f bc 13 7a 12 3e 0d 1a 96 bc 40 df df bc
       -0.015586899 0.1430438 -0.018322969 -0.027328134
000030 40 fd d3 bd 3f 4c c3 bd ef 2e fd 3c da 6c 01 3e
       -0.10351038 -0.09536027 0.030906169 0.1263918
000040 be 11 98 3c 54 40 bd bd 9b ae 16 3d 00 9a d0 3b
       0.018563148 -0.09240785 0.03678761 0.0063660145
000050 cc 2e 95 3d f9 8d d1 bd b0 74 21 bd 99 61 8f 3d
       0.072843164 -0.10232157 -0.039417922 0.07001037
000060 79 b4 5e bb d5 4a 99 bc 68 89 e1 bc fa e5 f2 3d
       -0.0033982082 -0.01871244 -0.02753134 0.11860271
000070 98 db 18 3d 28 98 a3 bc 65 13 8e bd e6 b9 0d 3e
       0.037318796 -0.019970015 -0.06937293 0.13840446
000080 db a2 d4 3d 28 b0 cb 3c e5 0c b4 bc d5 cf 9a 3d
       0.10382625 0.024864271 -0.021978805 0.07559172
000090 3d f6 b3 3d ea 21 16 3e 5d f5 52 bd 61 f8 b5 3d
       0.087872006 0.14661375 -0.051503528 0.08885265
0000a0 2a e6 9c 3d ef fd 0c 3d bc 29 8f 3d ee d2 e4 3c
       0.07661088 0.034421857 0.06990382 0.02793261
0000b0 74 d1 35 3d 8a 3c ba 3d 63 22 09 3e 49 1f f3 bb
       0.044389203 0.09093578 0.13392024 -0.007419501
0000c0 2c d7 a0 3d ea cc 9c 3d f7 ce d1 bc e0 aa 68 3c
       0.07853541 0.07656272 -0.025611384 0.014200896
0000d0 01 6c b5 bd 75 1b 29 bd c5 a7 9a 3c 7a f2 9a 3d
       -0.08858491 -0.04128595 0.018878827 0.0756578
0000e0 30 48 3a 3d fc f9 3d bd fc f8 b1 3d 8b cb 1a 3e
       0.045479 -0.04638098 0.08690068 0.15116708
0000f0 fa 16 df bd 70 73 92 3d c2 33 53 3d df 12 17 3d
       -0.10893054 0.07150924 0.051563032 0.03688323
