midterm/MLP2_best_model.pth (torch, 13464 bytes, 5 tensors)

fc.0.weight f4 [64, 8]
0	0x3e097931	0.13425137
1	0x3e92c0ed	0.28662816
2	0xbe57ca33	-0.21073227
3	0xbcd75ef7	-0.0262904
4	0x3e857889	0.26068524
5	0x3e7f1ba4	0.24912888
6	0xbe7a1abc	-0.24424261
7	0x3ccb45c4	0.02481354
8	0x3d8f4045	0.0699468
9	0x3e9f5c59	0.31125143
10	0x3decfdb8	0.115718305
11	0xbeb4052f	-0.35160205
12	0xbcad34e7	-0.02114339
13	0xbe995e3f	-0.29954717
14	0xbe8a1cfa	-0.26975232
15	0x3e6d3820	0.23165941
16	0xbd684e47	-0.056715276
17	0x3eb40012	0.35156304
18	0xbe4125a7	-0.1886202
19	0x3e8d1528	0.27555203
20	0x3e4fb9ed	0.20285769
21	0xbe818e29	-0.25303772
22	0xbe686670	-0.22695327
23	0x3e984386	0.29739016
24	0xbd105c80	-0.035244465
25	0x3e2ff57e	0.17183492
26	0xbe01897c	-0.12650102
27	0xbe8df6c2	-0.27727324
28	0x3e1b5762	0.15170053
29	0xbe67adc3	-0.22624879
30	0x3dfa88d8	0.12233132
31	0xbe1738b1	-0.1476772
32	0xbd98ec14	-0.07466903
33	0x3e584963	0.21121745
34	0xbdca53ea	-0.098792866
35	0xbe5e9938	-0.21738136
36	0x3e81d142	0.25354964
37	0x3e25ef90	0.16204667
38	0xbe9a2848	-0.30108857
39	0x3d31c5e5	0.043401618
40	0xbd35da07	-0.04439738
41	0x3e4c2f2b	0.19939868
42	0xbdbc1a51	-0.09184707
43	0xbdc824c7	-0.0977264
44	0xbe57b5a4	-0.21065384
45	0xbdf08a75	-0.117451586
46	0x3ea808e3	0.3281928
47	0xbe9164c3	-0.28397188
48	0xbcd78bd5	-0.026311794
49	0x3dfbcda0	0.12295079
50	0xbdec749f	-0.11545681
51	0x3e7e8ffe	0.24859616
52	0xbe95621a	-0.29176408
53	0xbe7e60ab	-0.24841563
54	0x3bd9e927	0.0066501084
55	0x3eab319e	0.33436292
56	0x3ea5d9d0	0.3239274
57	0xbea5ba3e	-0.32368654
58	0xbe6e1eed	-0.23253985
59	0x3d992285	0.07477287
60	0x3e37de02	0.17955783
61	0x3e996dae	0.2996649
62	0x3de84063	0.11340406
63	0xbd88b417	-0.066749744
64	0x3e018d7a	0.12651625
65	0xbe44dc8a	-0.19224754
66	0x3e14abda	0.14518681
67	0xbd230928	-0.039803654
68	0xbe4bee08	-0.1991502
69	0xbe2ab978	-0.16672313
70	0x3e985429	0.2975171
71	0x3df9c957	0.12196606
72	0x3e900dd6	0.28135556
73	0xbe3c2934	-0.18375093
74	0x3d0d1e30	0.034452617
75	0xbe3e4519	-0.18581046
76	0x3e496186	0.19666108
77	0x3dd9a806	0.10627751
78	0x3dc50f0b	0.0962201
79	0xbdf6cf60	-0.120512724
80	0x3e6684d6	0.2251161
81	0x3ccc43a8	0.024934605
82	0xbde53a38	-0.11192745
83	0xbd3cd8c3	-0.046105158
84	0x3e5cd528	0.21565688
85	0x3e8fa6c8	0.28056931
86	0xbeaf57ca	-0.34246665
87	0xbc2c3b2b	-0.010512154
88	0xbe3928c1	-0.18081953
89	0x3de7b597	0.113139324
90	0xbe7391ba	-0.23786059
91	0x3d30eb02	0.04319287
92	0x3e9dca70	0.3081851
93	0xbccbc579	-0.024874436
94	0x3d9c644b	0.07636317
95	0x3e09f1ab	0.13471095
96	0x3ddd4570	0.1080426
97	0x3ea397ec	0.31951845
98	0xbe56a97e	-0.20963094
99	0xbd815ec3	-0.063169025
100	0x3d9b9978	0.07597631
101	0x3e4533d0	0.19258046
102	0x3ea0cf67	0.31408235
103	0x3aab885b	0.0013086902
104	0x3ea2d9f0	0.31806898
105	0x3dd5236d	0.104071476
106	0xbb18fccf	-0.0023344045
107	0xbe06b8de	-0.13156459
108	0x3e00fc5b	0.12596266
109	0x3e933ac7	0.2875578
110	0xbe950f41	-0.291132
111	0x3d029e22	0.03188909
112	0x3d48f86c	0.04906504
113	0x3e6e3bc3	0.23264985
114	0xbae68350	-0.0017586742
115	0x3ead0e5c	0.33800018
116	0xbe063bba	-0.13108721
117	0x3e99ac14	0.30014098
118	0x3cf17c6d	0.029478276
119	0x3e9119c8	0.28339982
120	0xbddfde96	-0.10931127
121	0xbe994509	-0.29935482
122	0xbd376940	-0.04477811
123	0xbe25f5fe	-0.1620712
124	0x3dbdebdc	0.09273502
125	0x3ea5cf4d	0.3238472
126	0xbc781940	-0.015142739
127	0xbcf8eee0	-0.030387342
128	0xbe58bcde	-0.21165797
129	0xbe76750c	-0.24068087
130	0x3e079c30	0.13243175
131	0xbe9a9671	-0.30192903
132	0x3e6be2a2	0.23035672
133	0xbd081b68	-0.03322926
134	0xbe9aa0dc	-0.3020085
135	0xbe6a4caa	-0.22880808
136	0xbe321272	-0.17389849
137	0x3e95ee70	0.29283476
138	0x3e30c586	0.17262849
139	0x3d8fae81	0.07015706
140	0xbe9cb6bf	-0.30608174
141	0x3b8f74dd	0.004377945
142	0xbe99255b	-0.29911312
143	0x3e524af7	0.2053641
144	0xbe5b5eae	-0.21422836
145	0x3e53a384	0.20667845
146	0xbde07e6b	-0.10961612
147	0x3d6514d6	0.055928074
148	0xbe29bb39	-0.16575326
149	0xbd868d14	-0.06569877
150	0xbd2bc357	-0.041934337
151	0x3ea2f92c	0.31830728
152	0xbe884679	-0.26616266
153	0x3e7f76c4	0.24947649
154	0x3db31453	0.08744111
155	0x3e9b561c	0.30339134
156	0x3d9ea7f4	0.07746878
157	0xbeadd953	-0.33954868
158	0xbd9c2902	-0.07625009
159	0x3e81b7d5	0.25335565
160	0x3daf417b	0.08557411
161	0xbe5aeb4e	-0.21378824
162	0x3ea5836a	0.32326823
163	0x3e1c322f	0.15253519
164	0x3e9b093f	0.30280492
165	0x3e7673c0	0.24067593
166	0xbd3db3c6	-0.046314023
167	0x3de0fc71	0.109856494
168	0xbe8495f2	-0.2589565
169	0xbe01a69f	-0.12661217
170	0x3e8da229	0.2766278
171	0xbda619fe	-0.08110426
172	0x3e0eeb35	0.13956912
173	0x3ea272ea	0.31728297
174	0x3e301301	0.1719475
175	0x3d49eef1	0.049300138
176	0xbe3090d7	-0.17242752
177	0x3dfa8cbc	0.12233874
178	0xbe278a72	-0.16361406
179	0xbe0fd5a8	-0.14046347
180	0xbc247080	-0.010036588
181	0xbeb1cba5	-0.3472568
182	0x3e8d887f	0.276432
183	0xbd353128	-0.044236332
184	0xbe9df02d	-0.30847302
185	0xbea3e5b3	-0.32011184
186	0xbe12c5d5	-0.1433328
187	0x3e672de9	0.22576107
188	0xbe5f75d2	-0.21822289
189	0x3e9ad108	0.30237603
190	0xbe8492c6	-0.2589323
191	0x3eb3d834	0.35125887
192	0x3e8eca5f	0.27888772
193	0xbe78372f	-0.24239801
194	0x3df363b3	0.118842505
195	0xbdac9de2	-0.08428551
196	0x3e3f9711	0.18709971
197	0xbe9c3eb1	-0.3051658
198	0x3e3abf02	0.18236926
199	0x3e93ba9e	0.28853315
200	0xbd9916c3	-0.074750446
201	0xbe0ab98b	-0.13547342
202	0x3eafa8e2	0.34308535
203	0xbe552593	-0.20815115
204	0xbde677b9	-0.11253304
205	0x3e88b0dd	0.26697436
206	0x3eac7667	0.33684084
207	0xbcd8deb2	-0.026473377
208	0xbe77eed5	-0.24212201
209	0xbd5eb618	-0.054372877
210	0x3d2f0f18	0.042739004
211	0x3d1a7250	0.037706673
212	0x3e6cc5ee	0.23122379
213	0x3e23c69e	0.15993735
214	0xbe8d66fe	-0.2761764
215	0xbe0bd602	-0.13655856
216	0xbe8b54ee	-0.27213234
217	0x3e71f4ab	0.2362849
218	0x3eb3cc80	0.3511696
219	0x3e7e49d7	0.24832855
220	0xbe32b349	-0.17451204
221	0x3e6757ea	0.2259213
222	0xbe6c7784	-0.23092467
223	0x3ea6f2ee	0.32607216
224	0x3e57262a	0.21010652
225	0xbde805f7	-0.11329263
226	0x3e19f01c	0.15033
227	0x3db2357c	0.087016076
228	0xbea18a8a	-0.3155101
229	0xbd85a10b	-0.06524857
230	0xbe3f019d	-0.18652959
231	0x3dd7285b	0.10505744
232	0x3e845233	0.25843963
233	0xbe502182	-0.20325282
234	0xbe92aee7	-0.28649065
235	0x3de1b6db	0.11021205
236	0x3db11c93	0.08648028
237	0x3e3d6be3	0.18498187
238	0xbe974dd6	-0.29551572
239	0xbe86f653	-0.26359805
240	0xbe8ebcb0	-0.27878332
241	0xbea2ff6e	-0.31835502
242	0x3d477e60	0.048704505
243	0xbe6b6ec6	-0.22991475
244	0x3e7bb266	0.24579772
245	0xbdf167a6	-0.117873475
246	0xbe934afd	-0.2876815
247	0xbe75560e	-0.23958609
248	0xbe83d8f4	-0.2575146
249	0xbe5f4951	-0.21805312
250	0xbe26057e	-0.16213033
251	0xbc9bc8df	-0.019016681
252	0x3e397efc	0.18114847
253	0x3d9d6698	0.07685584
254	0x3e2ca9c9	0.16861643
255	0x3e9dacb7	0.30795833

fc.0.bias f4 [64]
0	0x3ebae752	0.36504608
1	0x3e8123b6	0.25222558
2	0xbe018f24	-0.1265226
3	0xbe9b20a4	-0.3029834
4	0x3eb52b3b	0.35384545
5	0x3e576225	0.21033533
6	0xbe963466	-0.29336852
7	0x3e66df4c	0.22546118
8	0x3eb591cc	0.35462797
9	0x3e9a5ce8	0.30149007
10	0x3e0f7577	0.14009653
11	0xbbaa6907	-0.0052005085
12	0xbe1297c4	-0.14315706
13	0x3d90918f	0.07059013
14	0xbdf148a3	-0.117814325
15	0xbe5ffc9a	-0.21873704
16	0xbeaaacb8	-0.333349
17	0x3e33d3b0	0.17561221
18	0x3e8fd797	0.2809417
19	0x3e1a7a62	0.15085748
20	0xbe053014	-0.13006622
21	0x3eaf7b7b	0.34273896
22	0xbea56150	-0.32300806
23	0x3e902ac7	0.28157637
24	0xbe9cea08	-0.30647302
25	0x3e0a71be	0.13519952
26	0xbe6f9af6	-0.23398957
27	0xbb59c4f1	-0.0033228958
28	0x3e59a0a9	0.21252693
29	0xbdbd1198	-0.09231871
30	0xbaeb6f00	-0.0017962158
31	0xbd956bb8	-0.07295936
32	0xbe5da3df	-0.21644543
33	0x3e2c335d	0.16816469
34	0xbe90ceb0	-0.2828269
35	0xbdbdd31a	-0.0926878
36	0x3d7a7a6a	0.0611519
37	0x3e6c513e	0.23077866
38	0x3dca912f	0.09890973
39	0x3e1dd7df	0.1541438
40	0x3e511ffe	0.2042236
41	0x3e5db805	0.21652229
42	0xbe554044	-0.20825297
43	0xbd72deb6	-0.059294425
44	0xbdf106e4	-0.117688924
45	0xbe66d3bb	-0.22541706
46	0x3e48f66f	0.19625257
47	0xbb3532c6	-0.0027648672
48	0xbe8f7812	-0.28021294
49	0xbe4b84a5	-0.19874819
50	0x3dbf48d0	0.0934006
51	0x3dc55060	0.09634471
52	0x3e2de9bd	0.16983695
53	0x3e1bca64	0.15213925
54	0x3df16f8b	0.11788853
55	0x3e901d42	0.28147322
56	0x3eacaf89	0.33727673
57	0x3dc8f3b8	0.09812111
58	0x3d409b6d	0.047023226
59	0xbd803a29	-0.06261093
60	0xbe35903d	-0.17730804
61	0xbe23ced0	-0.15996861
62	0x3c1ccf64	0.00957093
63	0xbdfbf2b4	-0.12302151

fc.2.weight f4 [32, 64]
0	0x3e0f7f16	0.14013323
1	0x3cff405d	0.03115862
2	0x3d803f26	0.062620446
3	0xbd4963ac	-0.04916732
4	0x3dd72523	0.1050513
5	0x3dccca26	0.09999494
6	0x3d677952	0.056512184
7	0x3d19effd	0.037582386
8	0x3d7524a6	0.059849404
9	0x3db74bb4	0.08949986
10	0xbc8e1730	-0.017345041
11	0x3c3f6e22	0.011683973
12	0x3d728f60	0.059218764
13	0xbdc36adb	-0.095418654
14	0x3dcecde5	0.10097865
15	0x3d55a054	0.052154854
16	0x3c40be60	0.011764139
17	0xbcec0691	-0.028811725
18	0x3d2e23a2	0.04251445
19	0x3d7c27d5	0.061561424
20	0x3dd6dcc3	0.10491326
21	0x3d1d5490	0.038410723
22	0x3a3a6400	0.0007110238
23	0x3d3e06ac	0.04639308
24	0xbc0c7a75	-0.008574118
25	0x3c79cc16	0.015246412
26	0xbd26e018	-0.040741056
27	0xbd878930	-0.06617963
28	0xbdd769a2	-0.10518195
29	0xba3d8404	-0.00072294497
30	0xbd29aaa4	-0.0414225
31	0xbd38e802	-0.045143135
32	0xbda33200	-0.07968521
33	0xbc5950b3	-0.013263869
34	0xbdf7a4cc	-0.120919794
35	0x3dba84fb	0.09107395
36	0x3dc139c1	0.09434844
37	0x3de6f52a	0.1127723
38	0xbdbcc889	-0.092179365
39	0xbd83d17c	-0.0643644
40	0x3df32989	0.118731566
41	0x3d19c265	0.037538905
42	0x3dcb64d0	0.09931338
43	0x3db7c82d	0.089737274
44	0x3dc00e50	0.0937773
45	0x3def689a	0.11689873
46	0x3e07f4ba	0.1327695
47	0x3e1022a4	0.14075714
48	0xbde1ec41	-0.1103139
49	0x3df390c2	0.11892845
50	0x3db895c1	0.09012938
51	0x3df028d3	0.117265366
52	0x3d07a58b	0.03311686
53	0x3e032b5e	0.12809512
54	0xbd83397b	-0.06407448
55	0x3d078aff	0.03309154
56	0x3c711103	0.014713529
57	0xbd2fadc3	-0.04289032
58	0xbd9fe9d5	-0.07808272
59	0xba17e4e6	-0.00057943014
60	0x3c66f490	0.014096394
61	0xbd78d21c	-0.06074725
62	0x3e0b792d	0.13620444
63	0x3d8d5b64	0.06902197
64	0x3d3e608a	0.046478786
65	0x3d848290	0.06470215
66	0xbe0b2fd9	-0.13592471
67	0xbd7f2108	-0.06228736
68	0xbc361707	-0.011113889
69	0x3d0f2cfb	0.034955006
70	0xbde52de8	-0.111903965
71	0xbce7685b	-0.028248003
72	0x3cef2cea	0.029196221
73	0xbd7f0ecb	-0.062269967
74	0x3d09a16c	0.03360121
75	0x3d99682f	0.074905746
76	0x3ca2e631	0.019885154
77	0x3d0b525a	0.034014083
78	0xbd0f7354	-0.035022095
79	0x3d9db7bc	0.0770106
80	0x3d59338c	0.053027675
81	0x3db1fafc	0.086904496
82	0x3dbb09b4	0.0913271
83	0xbc99d1cd	-0.018776799
84	0xbda0bb2e	-0.07848202
85	0xbdcfac79	-0.101403184
86	0x3d8a17c2	0.06742813
87	0x3cf91161	0.030403795
88	0x3bfe0371	0.007751875
89	0x3d16c5da	0.03680978
90	0xbd543468	-0.05180779
91	0x3c3179b3	0.010832238
92	0xbc364910	-0.011125818
93	0xbd2266d3	-0.039648842
94	0x3db81956	0.089892074
95	0xbd8d1dc6	-0.068904445
96	0xbda479e8	-0.08031064
97	0x3c9a59ce	0.01884165
98	0x3da31bec	0.0796431
99	0x3d48a519	0.048985574
100	0x3c2a7c26	0.010405576
101	0xbce4fa10	-0.02795127
102	0x3dd93120	0.10605073
103	0x3d91d40b	0.07120522
104	0x3d94e470	0.072701335
105	0x3c07eb20	0.008295804
106	0x3d6f7ba4	0.058467522
107	0xbdd144a8	-0.10218173
108	0xbd5d085f	-0.05396306
109	0xbca86a68	-0.020558551
110	0xbdd7d1c8	-0.105380595
111	0x3d27e5f2	0.040990777
112	0x3c94008e	0.01806667
113	0x3dd536f4	0.10410872
114	0xbd83b3d2	-0.064307824
115	0xbdf34435	-0.11878244
116	0x3c8f92c7	0.017526044
117	0x3d626a19	0.055276964
118	0xbdda30b2	-0.10653819
119	0xbcc9ba83	-0.024625069
120	0x3db0c9b3	0.08632221
121	0xbd567beb	-0.05236427
122	0xbb289ab4	-0.0025726976
123	0x3cf2a1ea	0.029618222
124	0x3cac0f88	0.0210035
125	0x3dd4dd9c	0.10393831
126	0xbd5c608d	-0.053803016
127	0xbdc2a5c0	-0.095042706
128	0x3d3b70b7	0.04576179
129	0x3df594a6	0.11991243
130	0xbd128da0	-0.035779595
131	0xbdf078d0	-0.11741793
132	0x3ce4bc71	0.027921887
133	0x3df7c279	0.120976396
134	0x3e0a33a8	0.13496268
135	0xbdd62d2c	-0.104578346
136	0x3dd13877	0.10215848
137	0x3d80e94a	0.06294496
138	0x3e0df930	0.13864589
139	0xbdaf8359	-0.085699745
140	0xbdc4c7cc	-0.09608421
141	0x3dfd1d3c	0.12359092
142	0x3d2323c0	0.039829016
143	0x3d5f6b70	0.05454582
144	0x3d12895c	0.035775527
145	0xbd4d2749	-0.050086293
146	0x3cd1e783	0.025623089
147	0x3db383b4	0.08765355
148	0x3e073a1e	0.13205764
149	0xb3f86000	-1.1565862e-07
150	0x3d29eda0	0.041486382
151	0xbcd5fb1c	-0.026120715
152	0x3d797515	0.060902674
153	0x3d94fbaf	0.07274567
154	0x3cf6ce28	0.0301276
155	0xbd0439b2	-0.032281585
156	0xbd9e428e	-0.07727538
157	0xbd1f93ad	-0.038959194
158	0x3de4dc5e	0.11174844
159	0xbdbc1ef5	-0.09185592
160	0xbdd605d2	-0.10450329
161	0xbd78e1de	-0.06076228
162	0x3da6f7a8	0.081527054
163	0xbda3a8e1	-0.079911955
164	0x3dcf4a9e	0.10121654
165	0x3d0f350e	0.034962706
166	0xbdda1322	-0.106481805
167	0xbd165eb9	-0.03671143
168	0x3d021274	0.03175588
169	0x3ddc3eec	0.10754189
170	0xbd8b3002	-0.06796266
171	0x3d9085e3	0.07056787
172	0x3e0de939	0.13858499
173	0xbddf7226	-0.10910444
174	0x3e0e232d	0.13880606
175	0x3d1c18f4	0.038109735
176	0x3de43607	0.111431174
177	0xbde38712	-0.11109747
178	0xbda0445c	-0.078255385
179	0xbdd76ce7	-0.10518818
180	0xbd733456	-0.059376083
181	0xbdbb0800	-0.09132385
182	0x3d99bf9f	0.07507252
183	0x3be80f62	0.007081912
184	0x3d35c762	0.0443796
185	0x3cfab6e4	0.030604787
186	0x3d7744c5	0.060368318
187	0x3c6334a3	0.01386753
188	0x3d0c3e7c	0.034239277
189	0x3d047ba0	0.03234446
190	0x3d91b33c	0.07114264
191	0x3c1ceec0	0.009578407
192	0x3d804d59	0.06264753
193	0xbd4d0203	-0.050050747
194	0xbdd1f497	-0.1025173
195	0xbdb327a6	-0.08747797
196	0xbd34537f	-0.04402494
197	0x3de79ebd	0.11309574
198	0xbdab79f1	-0.08372868
199	0x3b9418f5	0.0045195767
200	0x3dfd3911	0.123644
201	0xbb534a60	-0.0032240376
202	0x3b62df60	0.0034618005
203	0xbc9d6e55	-0.01921765
204	0xbd2a4c19	-0.04157648
205	0xbd159391	-0.036517683
206	0x3d6bd78f	0.05757862
207	0xbde5a330	-0.11212766
208	0x3d641170	0.055680692
209	0x3dc63977	0.09678929
210	0xbc5bc39b	-0.013413335
211	0x3d1e40eb	0.03863613
212	0x3da00c80	0.07814884
213	0x3d6e108d	0.058121253
214	0x3df0053c	0.117197484
215	0x3dee7964	0.11644247
216	0x3db62d6e	0.08895384
217	0xbd59e4d9	-0.05319676
218	0xbd9d16de	-0.07670377
219	0x3cd18a88	0.025578752
220	0xbdc582b1	-0.09644068
221	0x3bdd8f70	0.006761484
222	0x3d31a144	0.043366686
223	0x3b8f1e13	0.004367599
224	0x3d34f328	0.044177204
225	0xbd2302b3	-0.039797496
226	0x3d446d40	0.04795575
227	0x3dbc8c44	0.09206441
228	0x3d8b7a25	0.068104066
229	0xbd85a0d6	-0.06524818
230	0xbda09f96	-0.078429386
231	0x3d448f61	0.0479883
232	0xbd2103e3	-0.039310347
233	0x3df6866d	0.120373584
234	0xbdd82980	-0.105547905
235	0x3ba78667	0.0051124576
236	0x3dc8f77c	0.09812829
237	0xbc14aac0	-0.009073913
238	0xbd8903ba	-0.06690164
239	0x3df2f10d	0.11862383
240	0xbdc6aced	-0.09700952
241	0xbd6b7d48	-0.057492524
242	0xbc8921fc	-0.016739838
243	0x3d8bef52	0.06832756
244	0x3dc9b88a	0.09849651
245	0x3c498e3a	0.012301976
246	0x3df29ef1	0.11846722
247	0x3df1a9fd	0.11800001
248	0x3d9b3184	0.07577804
249	0x3d1bed23	0.038067948
250	0xbd2a3633	-0.041555595
251	0xbdb0b1cc	-0.08627662
252	0xbda60bc4	-0.08107713
253	0x3d97bc2a	0.07408936
254	0x3b9c4592	0.0047690356
255	0x3dcdfc9c	0.10057947

fc.2.bias f4 [32]
0	0xbd8af82a	-0.06785615
1	0xbdae030a	-0.084966734
2	0x3c94dc0e	0.018171337
3	0xbd4484e4	-0.047978297
4	0x3d293093	0.04130609
5	0x3d647e76	0.055784665
6	0xbc4ba460	-0.012429327
7	0x3cd417a1	0.025890173
8	0x3c2c3404	0.010510448
9	0x3e0bec52	0.13664368
10	0xbc81aa5f	-0.01582831
11	0x3dd3bd15	0.10338799
12	0x3d03f2a2	0.032213815
13	0xbd8fdd98	-0.070246875
14	0xbce15b2a	-0.02750929
15	0xbd6b1fdc	-0.05740343
16	0x3daf4257	0.08557575
17	0x3cc678f3	0.024227595
18	0x3daad981	0.08342267
19	0x3d89ce35	0.06728784
20	0xbcbeec90	-0.023306161
21	0xbc99079a	-0.018680383
22	0x3d9f5d25	0.07781438
23	0xbd56b9e4	-0.052423373
24	0x3d85ef17	0.065397434
25	0x3d515048	0.051101953
26	0xbd9d0c44	-0.07668355
27	0x3cdc97c0	0.026927829
28	0x3d11239d	0.035434354
29	0x3cc6ec81	0.024282696
30	0xbd87eb34	-0.06636658
31	0x3d93864c	0.072033495

fc.4.weight f4 [1, 32]
0	0x3e3e839d	0.18604894
1	0xbe16c9b2	-0.14725378
2	0x3db548c1	0.08851767
3	0x3e12895b	0.1431021
4	0x3e0531a3	0.13007216
5	0x3d816deb	0.06319793
6	0x3a87d980	0.0010364503
7	0xbc86819e	-0.016419228
8	0x3e1ab3cf	0.15107654
9	0x3d01426f	0.031557497
10	0x3e0b4cb7	0.13603483
11	0x3e02a57b	0.12758438
12	0x3defe141	0.11712886
13	0x3e030dd9	0.12798251
14	0x3e41a687	0.18911181
15	0x3de93746	0.11387496
16	0x3dc443b7	0.09583228
17	0x3dae6410	0.08515179
18	0xbe11dae8	-0.14243662
19	0x3caaa67d	0.02083134
20	0xbe1ca0c1	-0.15295698
21	0x3d267367	0.0406374
22	0xba1f406a	-0.0006074967
23	0xbd38e921	-0.045144204
24	0xbdbbd22e	-0.09170948
25	0x3dbf53ce	0.09342156
26	0xbdf73cac	-0.12072119
27	0xbde9a955	-0.11409251
28	0x3e0fadd7	0.14031158
29	0xbd16ea4e	-0.036844544
30	0x3e2ccb29	0.16874374
31	0xbd684294	-0.05670412
